…
eters": [["weight", [128, 2]], ["bias", [128]]], "output_shape": [[512, 128]], "num_parameters": [256, 128]}, {"name": "init_embed", "id": 5503815296, "class_name": "Linear(in_features=3, out_features=128, bias=True)", "parameters": [["weight", [128, 3]], ["bias", [128]]], "output_shape": [[512, 20, 128]], "num_parameters": [384, 128]}, {"name": "embedder", "id": 5503815352, "class_name": "GraphAttentionEncoder(\n  (layers): Sequential(\n    (0): MultiHeadAttentionLayer(\n      (0): SkipConnection(\n        (module): MultiHeadAttention()\n      )\n      (1): Normalization(\n        (normalizer): BatchNorm1d(128, eps=1e-05, momentum=0.1, affine=True, track_running_stats=True)\n      )\n      (2): SkipConnection(\n        (module): Sequential(\n          (0): Linear(in_features=128, out_features=512, bias=True)\n          (1): ReLU()\n          (2): Linear(in_features=512, out_features=128, bias=True)\n        )\n      )\n      (3): Normalization(\n        (normalizer): BatchNorm1d(128, eps=1e-05, momentum=0.1, affine=True, track_running_stats=True)\n      )\n    )\n    (1): MultiHeadAttentionLayer(\n      (0): SkipConnection(\n        (module): MultiHeadAttention()\n      )\n      (1): Normalization(\n        (normalizer): BatchNorm1d(128, eps=1e-05, momentum=0.1, affine=True, track_running_stats=True)\n      )\n      (2): SkipConnection(\n        (module): Sequential(\n          (0): Linear(in_features=128, out_features=512, bias=True)\n          (1): ReLU()\n          (2): Linear(in_features=512, out_features=128, bias=True)\n        )\n      )\n      (3): Normalization(\n        (normalizer): BatchNorm1d(128, eps=1e-05, momentum=0.1, affine=True, track_running_stats=True)\n      )\n    )\n    (2): MultiHeadAttentionLayer(\n      (0): SkipConnection(\n        (module): MultiHeadAttention()\n      )\n      (1): Normalization(\n        (normalizer): BatchNorm1d(128, eps=1e-05, momentum=0.1, affine=True, track_running_stats=True)\n      )\n      (2): SkipConnection(\n        (module): Sequential(\n          (0): Linear(in_features=128, out_features=512, bias=True)\n          (1): ReLU()\n          (2): Linear(in_features=512, out_features=128, bias=True)\n        )\n      )\n      (3): Normalization(\n        (normalizer): BatchNorm1d(128, eps=1e-05, momentum=0.1, affine=True, track_running_stats=True)\n      )\n    )\n  )\n)", "parameters": [["layers.0.0.module.W_query", [8, 128, 16]], ["layers.0.0.module.W_key", [8, 128, 16]], ["layers.0.0.module.W_val", [8, 128, 16]], ["layers.0.0.module.W_out", [8, 16, 128]], ["layers.0.1.normalizer.weight", [128]], ["layers.0.1.normalizer.bias", [128]], ["layers.0.2.module.0.weight", [512,
…
